cifar_net.pth (torch, 250887 bytes, 10 tensors)

conv1.weight f4 [6, 3, 5, 5]
0	0x3ec0f3e9	0.3768609
1	0x3f218f4f	0.63109297
2	0x3f0fa9ec	0.56118655
3	0x3f09ee44	0.5387919
4	0x3ed1761b	0.4091042
5	0x3e877aa3	0.26460752
6	0x3eb39c35	0.35080114
7	0x3eadb095	0.33923784
8	0x3ec18ac0	0.3780117
9	0x3e607992	0.21921375
10	0x3c584114	0.01319911
11	0xbe4d4f03	-0.20049672
12	0xbe67b74d	-0.22628517
13	0xbc7a536a	-0.0152786765
14	0x3d82241c	0.063545436
15	0xbe760004	-0.24023443
16	0xbeb8e83d	-0.36114684
17	0xbe731038	-0.23736656
18	0xbebb7fab	-0.3662084
19	0xbe36c49c	-0.17848438
20	0xbd6695b5	-0.056295116
21	0xbe41ae5f	-0.18914174
22	0xbe8561b2	-0.26051098
23	0xbe69d75c	-0.2283606
24	0xbeb0b4b3	-0.34512863
25	0xbe7bc483	-0.24586682
26	0xbe0521ab	-0.13001125
27	0xbe8a46e5	-0.27007213
28	0xbeb3847d	-0.35062018
29	0xbe877da0	-0.26463032
30	0xbe62a54d	-0.2213337
31	0xbd9903c5	-0.07471422
32	0xbe3b430b	-0.18287294
33	0xbe157177	-0.14594065
34	0xbe714763	-0.23562388
35	0xbdc8e554	-0.09809366
36	0xbebe8a95	-0.37215105
37	0xbef58030	-0.47949362
38	0xbe7cdcea	-0.24693647
39	0xbe683372	-0.22675875
40	0xbdcfed45	-0.101526774
41	0xbe455c03	-0.19273381
42	0xbe255c69	-0.16148533
43	0xbe55a931	-0.20865323
44	0xbdff8ca4	-0.12477997
45	0x3e05eafc	0.1307792
46	0x3e92f88c	0.2870525
47	0x3e655a32	0.22397688
48	0x3e685877	0.22689997
49	0x3e148e3b	0.14507382
50	0xbe139e84	-0.14415938
51	0xbde84cb9	-0.11342759
52	0x3d62dec6	0.055388235
53	0x3cc83cf8	0.024443135
54	0xbd7f7625	-0.06236853
55	0x3d718a65	0.058969874
56	0xbd9b8b65	-0.07594947
57	0xb98a79f0	-0.00026412262
58	0x3c327a2a	0.010893384
59	0x3e0a5e4a	0.13512531
60	0x3e23af11	0.15984751
61	0xbe280d44	-0.1641131
62	0xbe67a507	-0.22621547
63	0xbe0cb89a	-0.13742295
64	0x3d48fddb	0.04907022
65	0x3e1677e7	0.14694177
66	0xbd9d311b	-0.07675382
67	0x3d137939	0.03600428
68	0x3dc9aa65	0.09846953
69	0x3e23e7a2	0.1600633
70	0x3eb5a684	0.35478604
71	0x3ecb3a92	0.39693123
72	0x3ecd703c	0.4012469
73	0x3e7d99ee	0.24765751
74	0x3e9b2b8a	0.30306655
75	0xbe4b8d60	-0.19878149
76	0xbe84b484	-0.25918972
77	0xbe164e12	-0.14678219
78	0xbe150029	-0.14550842
79	0xbe89f3f3	-0.2694393
80	0xbe3fe12c	-0.1873824
81	0xbeaa877b	-0.33306488
82	0xbeacdea9	-0.33763626
83	0xbe7de110	-0.24792886
84	0xbe7e7caf	-0.2485225
85	0xbe3e589f	-0.18588494
86	0xbdabd569	-0.08390314
87	0xbd9207f8	-0.07130426
88	0x3d0373d8	0.0320929
89	0xbe4e748e	-0.2016165
90	0x3d68083b	0.056648474
91	0x3e21cf55	0.15801747
92	0x3e372dd7	0.1788858
93	0x3e317412	0.17329434
94	0x3e2f5244	0.17121226
95	0x3e3faec3	0.1871901
96	0x3e95e098	0.29272914
97	0x3ef4364e	0.4769768
98	0x3ebb2989	0.36555126
99	0x3eb96544	0.36210072
100	0x3d98df56	0.07464473
101	0xbda49627	-0.08036452
102	0xbc688979	-0.014192932
103	0xbe2d2e70	-0.16912246
104	0xbde4e06f	-0.1117562
105	0xbe0cac71	-0.13737656
106	0xbd3339d2	-0.043756314
107	0xbe89747a	-0.26846677
108	0xbde32080	-0.11090183
109	0xbc36b375	-0.011151184
110	0xbe059678	-0.1304568
111	0x3d03c20a	0.032167472
112	0x3c852f2e	0.016257849
113	0xbce310ed	-0.027718032
114	0x3cb75fb8	0.02238451
115	0x3d14bfa9	0.036315594
116	0xbbfe6b7b	-0.0077642775
117	0x3e18a849	0.14907946
118	0x3e2d00ea	0.1689488
119	0xbd02f5bf	-0.031972643
120	0xbd97f4c2	-0.07419731
121	0x3e2e36b3	0.17013054
122	0x3d9420a9	0.07232792
123	0x3e4c016d	0.19922419
124	0x3e6cd55d	0.23128267
125	0x3e62538e	0.22102186
126	0x3e77cd96	0.24199519
127	0x3c694dcb	0.014239739
128	0xbd2259b6	-0.039636336
129	0x3e67a5f2	0.22621897
130	0x3d07184c	0.032982156
131	0xbd936a9c	-0.071980685
132	0xbd9986c0	-0.07496405
133	0x3d97e7d6	0.07417266
134	0x3b286f53	0.002570112
135	0x3deea729	0.11652977
136	0xbd46dd5f	-0.04855096
137	0xbaf4ab4c	-0.0018666773
138	0xbdaf079b	-0.085463725
139	0xbd923243	-0.07138493
140	0x3c2c8730	0.010530278
141	0x3d428dee	0.047498636
142	0x3e0ac913	0.13553266
143	0x3d6c85e7	0.057744887
144	0x3d3682b3	0.04455824
145	0xbd351d2f	-0.044217285
146	0xbd70a325	-0.058749337
147	0x3ca52ae2	0.02016205
148	0x3daefa25	0.08543805
149	0x3dd31607	0.10306936
150	0xbd5fa48d	-0.054600287
151	0xbcfc05b7	-0.030764444
152	0xbe03a855	-0.12857182
153	0xbd14bba3	-0.036311757
154	0xbe8d3a7f	-0.2758369
155	0xbddada7c	-0.10686204
156	0xbe4a0c6c	-0.19731301
157	0xbd90f71d	-0.07078383
158	0xbe0099e5	-0.12558706
159	0xbe590cf8	-0.21196353
160	0xbdbed328	-0.093176186
161	0xbe135d17	-0.1439098
162	0xbe4754db	-0.19465964
163	0xbe5157c2	-0.20443633
164	0xbe561f69	-0.2091042
165	0xbdecc801	-0.11561585
166	0xbe87868d	-0.26469842
167	0xbe94cbab	-0.29061636
168	0xbdb73059	-0.089447685
169	0xbe1d11dd	-0.15338846
170	0xbe347a22	-0.17624715
171	0xbe704c6b	-0.23466651
172	0xbd99cff7	-0.07510369
173	0xbe4647dc	-0.1936335
174	0xbdb46daa	-0.08809979
175	0xbde9fc20	-0.11425042
176	0xbd964e70	-0.073391795
177	0x3dbc04bb	0.0918059
178	0x3bbf6c3f	0.0058417614
179	0x3d5ba69f	0.0536257
180	0x3df066b0	0.11738336
181	0x3dc5cb92	0.096579686
182	0xbd20b896	-0.039238535
183	0x3dbe07ef	0.09278857
184	0xbcce9f43	-0.025222426
185	0xbe3580ee	-0.17724964
186	0x3c83df06	0.016097557
187	0x3cdf357a	0.02724718
188	0x3e01fd27	0.12694226
189	0xbe011bd2	-0.12608269
190	0x3bc9dcd9	0.0061603603
191	0x3cd60544	0.026125558
192	0x3dc659d7	0.09685104
193	0xbd72d03b	-0.059280615
194	0x3d44f71c	0.048087224
195	0xbe1dc9d6	-0.15409026
196	0xbbcea08a	-0.006305759
197	0xbd559040	-0.05213952
198	0xbc4f53d1	-0.012654261
199	0xbdb12486	-0.086495444
200	0x3e6d176c	0.23153466
201	0x3e9d4282	0.30714804
202	0x3eb38f88	0.35070443
203	0x3e81872c	0.2529844
204	0x3e8f8180	0.28028488
205	0x3e69bffa	0.2282714
206	0x3e959de0	0.29222012
207	0x3ec8f1f0	0.39247084
208	0x3e8c8318	0.27443767
209	0x3e1a6b38	0.15079963
210	0xbc2822bb	-0.010262187
211	0x3e80d7ae	0.2516455
212	0x3dfd2ce7	0.1236208
213	0x3e846bf7	0.2586362
214	0x3d88e858	0.06684941
215	0x3df0f433	0.11765327
216	0x3e17389b	0.14767687
217	0x3e2962f4	0.16541654
218	0x3e4b455a	0.19850674
219	0x3e3222e7	0.17396127
220	0xbe124833	-0.14285354
221	0x3d866e97	0.06564062
222	0x3da40228	0.08008224
223	0x3d99a907	0.075029425
224	0x3dc37f2d	0.09545741
225	0xbe1b31e8	-0.15155756
226	0xbe213c81	-0.15745737
227	0xbd83a31b	-0.06427594
228	0x3dc94b54	0.09828821
229	0x3e1df7ae	0.15426514
230	0x3d203e13	0.0391217
231	0xbe0c6808	-0.1371156
232	0xbc829ce8	-0.01594396
233	0x3da7f8f5	0.08201782
234	0x3d20c804	0.03925325
235	0x3d1cb473	0.038258027
236	0xbe114486	-0.14186296
237	0x3bef4751	0.0073022027
238	0x3d7fff38	0.062499255
239	0xbd1ba380	-0.037997723
240	0xbe1f45de	-0.15553996
241	0xbb9200d8	-0.004455667
242	0xbd6131bd	-0.054979075
243	0x3da7234d	0.0816103
244	0x3d48fb51	0.0490678
245	0xbd873247	-0.066013865
246	0xbbc8c378	-0.0061268173
247	0x3ce34b3f	0.027745841
248	0x3ccc786b	0.024959764
249	0x3dad0bc1	0.084495075
250	0x3db2f8a8	0.08738834
251	0x3cf9d5a4	0.03049738
252	0xbddd0de7	-0.10793667
253	0xbdaae0e4	-0.08343676
254	0xbd3c9aa9	-0.046045933
255	0xbd29cda6	-0.041455887

conv1.bias f4 [6]
0	0xbe9ca450	-0.3059411
1	0xbeae0c44	-0.33993733
2	0x3dd042d3	0.10168996
3	0x3e6afbc3	0.22947602
4	0xbe4bb599	-0.19893493
5	0xbe7d5522	-0.24739507

conv2.weight f4 [16, 6, 5, 5]
0	0xbe0fd6f7	-0.14046846
1	0xbe347f6c	-0.17626733
2	0xbd898860	-0.067154646
3	0x3dc70988	0.09718615
4	0x3dcc674e	0.09980641
5	0xbe0b46fd	-0.13601299
6	0xbe306b74	-0.1722849
7	0xbc8055c6	-0.0156659
8	0x3d05f408	0.03270343
9	0x3dd65750	0.10465872
10	0xbd8c0965	-0.06837729
11	0xbe232aa3	-0.15934233
12	0xbd4f1672	-0.050558515
13	0xbc462ae7	-0.01209519
14	0x3e01f8b5	0.1269253
15	0xbd3276e1	-0.043570403
16	0xbcfa8a9b	-0.03058367
17	0xbe083115	-0.13299973
18	0x3ce0f69a	0.027461339
19	0x3e30eac3	0.17277054
20	0x3ce0b021	0.027427735
21	0xbd82b9b2	-0.06383075
22	0x3b6118f9	0.003434716
23	0x3ce91778	0.028453574
24	0x3e3348ac	0.17508191
25	0x3ca2b450	0.01986137
26	0xbd542592	-0.051793642
27	0xbd5bf723	-0.053702485
28	0xbdce4274	-0.10071269
29	0xbe0566a3	-0.13027434
30	0xbdc2b26f	-0.0950669
31	0xbd2e0406	-0.042484306
32	0xbc8a4a72	-0.016881201
33	0xbd9b4f4e	-0.075834855
34	0xbddad20b	-0.10684594
35	0xbda7f881	-0.08201695
36	0xbd850c35	-0.06496469
37	0xbda3ac71	-0.07991875
38	0x3cef2e37	0.029196842
39	0xbde44906	-0.111467406
40	0x3d47c3c1	0.04877067
41	0x3d1b6e71	0.037947122
42	0xbd80c503	-0.06287577
43	0xbe27877a	-0.16360274
44	0xbc8aee00	-0.01695919
45	0x3e4cbc4e	0.19993708
46	0x3d4f2f8b	0.05058245
47	0xbd44d7b5	-0.048057277
48	0xbd025ca8	-0.031826645
49	0xb98835da	-0.00025980064
50	0x3d10193e	0.035180323
51	0xbde3d8bb	-0.111253224
52	0xbdcb7ee1	-0.099363096
53	0xbd8d6588	-0.06904131
54	0x3d0a8279	0.033815835
55	0xbd3c6280	-0.045992374
56	0x3d36f768	0.04466954
57	0xbd3ea354	-0.04654248
58	0xbbec17e5	-0.007204997
59	0xbd1124dc	-0.035435542
60	0x3d3a3b5f	0.045466777
61	0x3d061941	0.032738928
62	0xbe156203	-0.1458817
63	0xbdc90160	-0.098147154
64	0xbd8d329f	-0.06894421
65	0x3d1b3aff	0.03789806
66	0xbd134524	-0.03595461
67	0x3c029f5f	0.007972567
68	0xbc648f48	-0.013950177
69	0x3cc6b8b2	0.024257991
70	0x3d848c2d	0.06472049
71	0x3c9f1891	0.019420894
72	0xbd19ef3b	-0.037581664
73	0xbc8622c8	-0.016374007
74	0x3d2a5dc4	0.041593328
75	0x3e7094bf	0.23494242
76	0x3e2942dd	0.16529413
77	0x3b9e15c0	0.00482437
78	0xbd1821d7	-0.037141647
79	0xbdc619ab	-0.096728645
80	0x3dac4e21	0.084133394
81	0x3d8955f8	0.0670585
82	0x3d4eb9dd	0.05047022
83	0xbca22a93	-0.019795692
84	0xbdf84407	-0.1212235
85	0x3d8b013d	0.067873456
86	0x3e14c689	0.1452886
87	0x3e067fec	0.13134736
88	0xbd89594d	-0.06706486
89	0xbdf05fe3	-0.11737039
90	0x3e493a7c	0.19651216
91	0x3e0ce384	0.13758665
92	0x3e16996e	0.14706966
93	0xbe322f81	-0.17400934
94	0xbe4943e9	-0.19654812
95	0x3e9ad26f	0.30238673
96	0x3e8147b7	0.25250027
97	0x3e1abc37	0.15110861
98	0x3b341d88	0.0027483422
99	0xbdfae8ea	-0.12251456
100	0xbb2069e9	-0.002447719
101	0xbd99b0b1	-0.07504404
102	0xbd4ef8a1	-0.05053008
103	0xbe1b677e	-0.15176198
104	0xbde9da23	-0.114185594
105	0xbc35bb44	-0.011092011
106	0x3c9ae57b	0.018908253
107	0xbd000b68	-0.031260878
108	0xbde9f0c3	-0.11422875
109	0xbdac6bf9	-0.08419032
110	0xbe14dce4	-0.14537388
111	0x3ceddf53	0.029037153
112	0x3d70938e	0.05873447
113	0xbda8f443	-0.08249714
114	0xbe2daad7	-0.16959701
115	0x3d5598d7	0.052147713
116	0x3d9c327c	0.07626817
117	0x3d849a12	0.06474699
118	0xbe347ed4	-0.17626506
119	0xbe1891bd	-0.14899345
120	0x3df05a2a	0.117359474
121	0x3e11ba02	0.14231113
122	0x3caac4d3	0.020845806
123	0xbe0f42c6	-0.13990316
124	0xbe13f6f8	-0.1444968
125	0xbd85e824	-0.06538418
126	0x3c19c3bd	0.009385047
127	0xbd93d147	-0.07217651
128	0xbe284733	-0.1643341
129	0xbe1c42d4	-0.15259868
130	0xbd1812e4	-0.03712739
131	0xbdca918c	-0.09891042
132	0xbd993bf3	-0.074821375
133	0xbe322428	-0.17396605
134	0xbdd15305	-0.10220913
135	0xb9b51d8f	-0.00034545033
136	0xbd4b51ab	-0.04963843
137	0xbe510b73	-0.20414524
138	0xbe2f3e67	-0.17113648
139	0xbdb6d605	-0.0892754
140	0xbda84f61	-0.08218265
141	0xbde36b13	-0.11104407
142	0xbda38340	-0.07984018
143	0xbe240d3e	-0.16020676
144	0xbdb0bd28	-0.08629829
145	0x3e034655	0.12819798
146	0x3dd429a3	0.10359504
147	0xbd81a56e	-0.06330381
148	0xbe0e95c8	-0.13924325
149	0xbd6c41db	-0.057679992
150	0xbd9d26f7	-0.076734476
151	0x3c47f397	0.012204072
152	0xbbf64c07	-0.0075163874
153	0xbc9675b3	-0.01836667
154	0xbb46491d	-0.0030255981
155	0x3d48fb81	0.049067978
156	0x3ca2575c	0.019817047
157	0x3e0e7ef1	0.13915612
158	0xbbe7d3dd	-0.0070748166
159	0x3db0c405	0.08631138
160	0x3c2f83a5	0.010712539
161	0x3cdea925	0.027180264
162	0xbcb90eb7	-0.022590024
163	0xbd807f13	-0.062742375
164	0xbd809d14	-0.0627996
165	0x3d339dc2	0.04385162
166	0xbda77640	-0.08176851
167	0xbd104297	-0.035219755
168	0xbd81008c	-0.062989324
169	0xbe0062bc	-0.12537664
170	0xbd61669f	-0.055029508
171	0xbddcc32c	-0.107794136
172	0xbdd3b20d	-0.10336695
173	0xbd965b4b	-0.073416315
174	0xbe3b950c	-0.18318576
175	0xbddba4da	-0.10724802
176	0xbe6a247b	-0.22865479
177	0xbd9b2c6d	-0.07576833
178	0x3cc76cdd	0.024343902
179	0x3deb829f	0.11499523
180	0x3dae8ebc	0.08523318
181	0xbe2a9cbc	-0.16661352
182	0xbd1c75ae	-0.038198166
183	0x3e28c9be	0.16483209
184	0x3e256d4a	0.16154972
185	0x3e145889	0.14486898
186	0xbe6014a5	-0.21882875
187	0x3bd3ee4a	0.0064676153
188	0x3d868abc	0.0656943
189	0x3e0faa2f	0.14029764
190	0xbdc5bac4	-0.09654763
191	0xbe786a01	-0.24259187
192	0xbe29e451	-0.16591002
193	0x3ab2663f	0.0013610794
194	0xbd037d8a	-0.032102145
195	0xbe38a823	-0.18032889
196	0xbe3caf50	-0.18426251
197	0xbe18bc02	-0.1491547
198	0xbc6cbeb7	-0.014449767
199	0xbc037505	-0.008023505
200	0xbda4fb37	-0.08055728
201	0xbe275884	-0.1634236
202	0xbe1da321	-0.1539426
203	0xbe0e1e09	-0.13878645
204	0xbd0d7c24	-0.034542218
205	0x3c8e3d32	0.017363165
206	0xbe09e284	-0.13465315
207	0xbd5bd228	-0.053667217
208	0xbced3f9b	-0.028960994
209	0x3d9cd23c	0.076572865
210	0xbd91619f	-0.07098698
211	0xbc762cff	-0.015025376
212	0xbc3ec18f	-0.011642828
213	0xbdc3767b	-0.09544083
214	0x3d056d2b	0.032574814
215	0x3daa6a78	0.083210886
216	0xbcd49a2b	-0.02595242
217	0xbceeba7a	-0.029141653
218	0xbd0377f9	-0.032096837
219	0xbcf2064f	-0.029544024
220	0x3d9ac98f	0.075579755
221	0xbd9b4384	-0.07581237
222	0xbcac8a7b	-0.021062126
223	0xbdd0e886	-0.102006
224	0xbd6bd3eb	-0.057575148
225	0x3d68492e	0.056710415
226	0xbdbbb9ba	-0.09166284
227	0xbdcf88eb	-0.10133537
228	0xbd02754d	-0.031850148
229	0x3dd0ad68	0.101893246
230	0xbb86dbc3	-0.004115553
231	0xbcb1201f	-0.021621762
232	0xbdc62064	-0.09674147
233	0xbba9c8b3	-0.005181396
234	0x3d23f80c	0.040031478
235	0x3e0d583b	0.13803189
236	0xbbfe2441	-0.0077557866
237	0xbd85eb6a	-0.06539042
238	0x3d0294e2	0.031880267
239	0xbd156ddf	-0.036481734
240	0x3e2e3bac	0.1701495
241	0x3d80752d	0.062723495
242	0xbb7f509a	-0.0038957954
243	0x3d543e87	0.051817443
244	0x3da35be0	0.07976508
245	0x3d1162ca	0.035494603
246	0xbda16ed1	-0.07882465
247	0xbd9c0f65	-0.07620124
248	0x3d21295c	0.039346084
249	0xbd7f52c8	-0.062334806
250	0xbe559ebc	-0.20861334
251	0xbe183e00	-0.14867401
252	0xbc33acd7	-0.010966501
253	0x3d5990d0	0.05311662
254	0xbddbbbea	-0.10729201
255	0xbdb4061b	-0.08790227

conv2.bias f4 [16]
0	0x3f07c1b9	0.5302997
1	0x3d3d20b8	0.04617378
2	0x3eeebc92	0.46628243
3	0xbcf35903	-0.02970553
4	0xbebbf26d	-0.36708394
5	0x3e61a3f4	0.220352
6	0x3ec95cc2	0.3932858
7	0x3eb38616	0.35063237
8	0xbcd88e2e	-0.026434984
9	0xbd38fdf9	-0.045164082
10	0xbef4b5f5	-0.47795072
11	0xbea045d5	-0.31303278
12	0xbe432e55	-0.19060643
13	0x3e5e0648	0.21682084
14	0x3f8c1935	1.0945193
15	0xbf4cd2fd	-0.8000944

fc1.weight f4 [120, 400]
0	0x3cd472ad	0.025933588
1	0xbc3950a8	-0.011310734
2	0x3cc169a7	0.02360995
3	0xbcddcb58	-0.0270745
4	0x3c444254	0.0119787045
5	0x3aca5e62	0.0015439505
6	0xbc9709b8	-0.018437251
7	0x3d5d3f29	0.054015312
8	0xbd81218a	-0.06305225
9	0xbc597a50	-0.0132737905
10	0xbd12d08b	-0.035843413
11	0xbd6e4b37	-0.0581772
12	0x3cf48343	0.029847747
13	0x3aa496cc	0.0012557148
14	0x3d515d3a	0.0511143
15	0x3c11945c	0.008885469
16	0xbbe652e6	-0.007028925
17	0x3db8d775	0.0902547
18	0xbd09d1d9	-0.033647392
19	0x3e032f0f	0.1281092
20	0x3e202673	0.15639667
21	0x3e048a8b	0.12943475
22	0x3d2ba459	0.04190478
23	0x3d60a2e8	0.05484286
24	0x3dd4a97e	0.103838906
25	0x3bcbdc83	0.0062213554
26	0x3cbb5458	0.022867367
27	0x3bdc7aee	0.0067285215
28	0x3c5d3e0c	0.013503563
29	0x3d820d85	0.06350235
30	0xbca55811	-0.020183595
31	0xbcdc5a59	-0.02689855
32	0x3dc9cf47	0.09853988
33	0x3d39c736	0.045355998
34	0x3d1d7b46	0.03844764
35	0xb9cb9c4a	-0.00038835622
36	0xbc078a25	-0.008272682
37	0x3ccac4d2	0.024752054
38	0xb882b75a	-6.233035e-05
39	0xbd885cf1	-0.06658352
40	0xbd9878ca	-0.07444914
41	0xbdde8902	-0.10865976
42	0xbd2b89f2	-0.0418796
43	0xbd80e648	-0.06293923
44	0x3c923bb9	0.017850744
45	0xbd8e26ed	-0.06941018
46	0xbd01fcce	-0.031735234
47	0xbce36507	-0.027758135
48	0xbd559086	-0.05213978
49	0xbb0b98d4	-0.002130081
50	0xbc63bbc5	-0.013899748
51	0xbc936220	-0.017991126
52	0x3c040dad	0.008059901
53	0x3d90fa8e	0.070790395
54	0xbd8d0fff	-0.06887817
55	0xbd1fa20c	-0.0389729
56	0xbd0233dc	-0.03178774
57	0xbd20b40f	-0.039234217
58	0xbc820e00	-0.015875816
59	0xbd7b61d3	-0.06137259
60	0xbd912b53	-0.070883416
61	0x3bf8ab50	0.0075887814
62	0x3a6947fd	0.0008898972
63	0xbd334918	-0.04377088
64	0xbd27c4dc	-0.040959224
65	0x3b2c8339	0.0026323332
66	0xbc7f2233	-0.015572119
67	0x3cbac7d8	0.022800371
68	0xbb043898	-0.0020175334
69	0x3d19a40a	0.037509955
70	0x3db6fcd2	0.089349404
71	0x3db62c07	0.08895116
72	0x3dcd5683	0.100262664
73	0x3dce7149	0.10080201
74	0x3dd3a99d	0.103350855
75	0xbd786b90	-0.060649455
76	0xbd8a1c09	-0.067436285
77	0x3d200301	0.039065365
78	0x3d477ce0	0.048703074
79	0xbcca4d95	-0.024695197
80	0x3d61329d	0.05497991
81	0xbd829082	-0.06375219
82	0xbc534074	-0.012893785
83	0x3cab927f	0.020943878
84	0xbc04ac76	-0.0080977585
85	0xbd4abf76	-0.049498998
86	0xbd7039a2	-0.058648713
87	0xbc56add7	-0.01310297
88	0xbba67422	-0.005079762
89	0x3d279b94	0.040919855
90	0x3d3b8d70	0.045789182
91	0x3c5eb6ca	0.013593385
92	0x3d15780a	0.03649143
93	0xbc84210b	-0.016129037
94	0xbad28834	-0.001606232
95	0x3df49ab5	0.119435705
96	0x3d914f94	0.070952564
97	0x3c4cdc1d	0.012503651
98	0x3d9292d7	0.07156914
99	0x3dc35980	0.09538555
100	0xbd8509ae	-0.06495987
101	0xbd99d4d8	-0.075113
102	0xbdd2ba6a	-0.10289462
103	0x3d8f278a	0.06989963
104	0x3dba5dff	0.090999596
105	0xbe12a899	-0.14322127
106	0xbd2eb41d	-0.04265224
107	0xbd025ad9	-0.03182492
108	0xbcedfc6d	-0.02905103
109	0x3d344278	0.044008702
110	0xbcf1955a	-0.029490162
111	0x3c42f486	0.011899119
112	0x3cd07130	0.025444597
113	0xbbca4c5e	-0.0061736545
114	0x3d68d8dd	0.056847442
115	0xbdbdaba0	-0.092612505
116	0x3c38eb5a	0.011286581
117	0x3c9568a6	0.018238377
118	0x3d61b436	0.055103503
119	0x3c8e98f1	0.017406913
120	0xbd3cf22d	-0.046129394
121	0x3d9b5783	0.07585051
122	0x3e0843b2	0.13307074
123	0x3dce9975	0.10087863
124	0x3d96aaa9	0.073567696
125	0x3d49026c	0.049074575
126	0x3dd2229a	0.10260506
127	0x3d5e1eab	0.054228466
128	0x3ca5785c	0.020198993
129	0x3de9651e	0.1139624
130	0x3d98454f	0.074350946
131	0xbc8359bd	-0.016034001
132	0xbc6c27aa	-0.0144137535
133	0x3ba6e39b	0.0050930507
134	0x3ddef0ae	0.1088575
135	0xbd44ac62	-0.04801596
136	0xbc60c74f	-0.013719394
137	0xbcd32309	-0.025773542
138	0xbce1854c	-0.027529381
139	0x3c916558	0.01774852
140	0x3ce6ad79	0.02815889
141	0xbd9c6e0b	-0.076381765
142	0xbd48cdb8	-0.049024314
143	0x3c73e641	0.01488644
144	0x3c8e47e5	0.017368266
145	0x3d8180e2	0.063234106
146	0xbda10fdf	-0.07864355
147	0xbd54f6ea	-0.051993288
148	0xbbf26192	-0.007396885
149	0xbca7bdf2	-0.020476315
150	0x3d8f575c	0.06999084
151	0xbc1a7bf9	-0.009428971
152	0x3d6e4d10	0.05817896
153	0x3d5d485d	0.05402409
154	0x3dd24d4d	0.1026865
155	0xbcd8b984	-0.026455648
156	0x3d586aff	0.052836414
157	0x3dbfd720	0.09367204
158	0x3d18c3d1	0.03729612
159	0x3e332974	0.17496282
160	0x3d81bd2f	0.06334912
161	0x3de7b102	0.113130584
162	0x3d5ea1c4	0.05435349
163	0x3dae1825	0.08500699
164	0x3d7cec96	0.061749063
165	0x3ccc19c7	0.024914635
166	0xbcc83847	-0.024440898
167	0xbd7bfe77	-0.061521973
168	0x3bcb205f	0.0061989273
169	0xbd269e23	-0.040678155
170	0x3d0f3f8d	0.034972716
171	0x3d7d4684	0.061834827
172	0xbd53e126	-0.05172839
173	0x3c763ac4	0.015028659
174	0xbd72fe3b	-0.059324484
175	0xbdb33dfe	-0.087520584
176	0xbc5c3797	-0.013440988
177	0xbda0c8d7	-0.07850807
178	0xbccf45d8	-0.025301859
179	0xbcd1e2a6	-0.02562077
180	0xbbeb7ce1	-0.0071865176
181	0xbbd79260	-0.0065787286
182	0xbc9360a2	-0.017990414
183	0x3cd6784a	0.026180405
184	0xbcd0d472	-0.025491927
185	0xbc38a254	-0.011269171
186	0x3b426d40	0.002966717
187	0x3d2dd0a1	0.042435292
188	0x3d062ba4	0.032756463
189	0xbcdd199f	-0.026989756
190	0x3c7b9346	0.015354937
191	0x3c54f525	0.0129979
192	0xbcd482b9	-0.02594124
193	0xbce2c954	-0.027683891
194	0xbd34f797	-0.044181433
195	0xbd22c5c7	-0.039739396
196	0xbd36cdac	-0.044629738
197	0xbced7fe7	-0.028991653
198	0xbc8f6340	-0.01750338
199	0xbdbee7d5	-0.09321562
200	0x3ce33927	0.027737213
201	0x3d8a4a6f	0.06752478
202	0x3cb832fa	0.022485245
203	0x3cf1ad39	0.029501544
204	0x3b246492	0.0025084359
205	0x3d3a791e	0.045525663
206	0x3d178c44	0.036999002
207	0xbcf900ef	-0.030395953
208	0x3d1c9758	0.03823027
209	0x3cca055a	0.024660755
210	0x3d1ddd6f	0.038541254
211	0x3b32d2f7	0.002728639
212	0x3c9ae8bb	0.018909803
213	0xbd8689ea	-0.06569274
214	0xbd88a742	-0.06672527
215	0x3c3c5f3a	0.011497313
216	0x3cdc895d	0.026920969
217	0xbcf0c410	-0.029390365
218	0xbcf576f2	-0.029963944
219	0xbd9a6b57	-0.07540005
220	0x3d409c22	0.0470239
221	0x3c43d3cb	0.011952351
222	0xbc545581	-0.012959839
223	0xbce22cba	-0.027609218
224	0xbd5eef6c	-0.05442755
225	0xbced9d87	-0.029005779
226	0x3d4a1e5b	0.049345355
227	0x3ccfc449	0.02536215
228	0x3d387b22	0.045039304
229	0x3c744593	0.014909166
230	0xbbcc156c	-0.0062281396
231	0x3d1f88ae	0.038948707
232	0x3d44b020	0.04801953
233	0x3d97ab80	0.07405758
234	0x3c8e48eb	0.017368754
235	0xbd38dd78	-0.045133084
236	0xbd8cac21	-0.068687685
237	0x3d4e1d0e	0.050320677
238	0x3c7bee61	0.015376658
239	0x3d061977	0.03273913
240	0xbc96e093	-0.018417632
241	0xbc51e3b4	-0.012810636
242	0xbce6195f	-0.02808827
243	0xbd3d7f11	-0.046263758
244	0xbd3676b2	-0.04454679
245	0xbda47c1c	-0.080314845
246	0xbd42cd17	-0.04755887
247	0xbc87e984	-0.016590841
248	0xba6c7476	-0.00090200396
249	0xbdd426fe	-0.10359
250	0x3d67fbbe	0.056636564
251	0x3cd84f94	0.026405133
252	0x3d41f3c8	0.04735163
253	0x3d1ccb74	0.038279966
254	0xbb86160a	-0.0040919827
255	0xbca92ac2	-0.020650271

fc1.bias f4 [120]
0	0x3dc464e4	0.09589556
1	0x3cfb5296	0.030679028
2	0x3c98d730	0.018657297
3	0xbc65dbb1	-0.014029429
4	0xbdaf1801	-0.085495
5	0xbce85931	-0.028362842
6	0x3ba326ee	0.004979006
7	0x3c93f9e4	0.018063493
8	0xbd0b5712	-0.034018584
9	0xbd6211be	-0.0551927
10	0xbc5adf94	-0.013358969
11	0xbd8ede90	-0.06976044
12	0x3cc8e249	0.024521964
13	0xbb3a188e	-0.0028395983
14	0x3bbbf2a1	0.0057357107
15	0x3d81dbdd	0.06340764
16	0xbd46e2ff	-0.048556324
17	0xbd1e7836	-0.03868886
18	0xbcbfbdf3	-0.023406005
19	0x3c1aa465	0.009438609
20	0x3e0b9c7c	0.13633913
21	0xbb9d27f7	-0.004796024
22	0x3d19ab56	0.037516914
23	0x3b691c17	0.0035569721
24	0x3e33d78e	0.17562696
25	0x3b17c047	0.0023155378
26	0x3d270f70	0.040786207
27	0x3e435306	0.1907464
28	0x3e072f26	0.1320158
29	0xbe015594	-0.12630302
30	0x3dbae7a9	0.09126217
31	0xbdee3646	-0.116314456
32	0x3e2376d0	0.15963292
33	0x3d68cfc5	0.05683877
34	0x3ca13d62	0.01968259
35	0xbd8f806b	-0.07006916
36	0xbcfccae1	-0.030858459
37	0xbc4ef831	-0.012632416
38	0xbd7c38f5	-0.061577756
39	0x3c65ed62	0.014033647
40	0x3e25878a	0.16164985
41	0xbd11c4c0	-0.035588026
42	0xbd73f338	-0.059558123
43	0xbc4d2e82	-0.012523295
44	0xbdc900fe	-0.09814642
45	0x3cc8842b	0.024477085
46	0xbd9e8fcf	-0.07742273
47	0x3d3b0aa7	0.045664456
48	0xbd61f2c0	-0.055163145
49	0x3b8f944f	0.0043816934
50	0xbddcfa71	-0.107899554
51	0xbdbe58b7	-0.09294265
52	0xbc9b9e62	-0.018996421
53	0xbd8f0070	-0.06982505
54	0xbd928dc1	-0.07155944
55	0xbcf5cd0f	-0.030005006
56	0xbbc4de55	-0.0060079494
57	0x3d1478f6	0.03624817
58	0x3ea6a05f	0.32544228
59	0x3dd8a5a5	0.10578469
60	0x3c1832b1	0.0092894295
61	0x3cbb6832	0.022876833
62	0xbdbc1011	-0.09182752
63	0xbc8ad25c	-0.01694601
64	0x3c4666c2	0.01210946
65	0x3e04dc59	0.12974681
66	0x3cbf0974	0.023319937
67	0xbc4505dc	-0.012025323
68	0x3d5e044d	0.05420332
69	0x3bf36328	0.007427592
70	0x3cf5cb52	0.030004177
71	0xbe513d2c	-0.20433491
72	0x3d59dfe3	0.05319203
73	0x3db4fcee	0.08837305
74	0xbb81e5e0	-0.003964171
75	0xbc4df92d	-0.012571615
76	0x3e165ced	0.14683886
77	0x3c2afe29	0.010436573
78	0x3d501223	0.050798547
79	0x3df746f1	0.12074078
80	0xb98729b4	-0.00025780278
81	0x3e371248	0.17878067
82	0x3dea7034	0.11447182
83	0x3dc0ee80	0.0942049
84	0x3d7890f1	0.060685102
85	0xbb90ae2d	-0.0044152946
86	0x3d8a777a	0.067610696
87	0xbd058b1f	-0.03260338
88	0x3c9bcbeb	0.019018134
89	0x3db344bd	0.08753345
90	0xbcebc51a	-0.028780509
91	0xbb960f62	-0.0045794705
92	0x3cff687a	0.031177748
93	0xbd13b336	-0.03605958
94	0x3e1321b5	0.14368327
95	0xbe37ddb6	-0.1795567
96	0xbc1a7b0e	-0.009428753
97	0x3d9d25c2	0.07673217
98	0x3d3b642a	0.04574982
99	0x3b27902a	0.0025568106
100	0x3dd67713	0.1047193
101	0xbb8d0bc1	-0.0043043797
102	0x3d2363f9	0.039890263
103	0x3cca882a	0.024723131
104	0x3e2712bc	0.1631574
105	0x3ddb2f7b	0.107024156
106	0x3dfbb895	0.122910656
107	0xbe0fd238	-0.14045036
108	0xbd05d971	-0.03267807
109	0x3d3d1866	0.046165846
110	0xbc92d45e	-0.01792353
111	0x3d5cdc85	0.05392124
112	0xba943d3b	-0.0011309752
113	0x3cc5c394	0.02414111
114	0x3db989b3	0.09059467
115	0x3dce2cf8	0.10067171
116	0xbdc3ad9d	-0.095545985
117	0xbd888561	-0.06666065
118	0xbd007983	-0.031365883
119	0xbbee0b5b	-0.0072645373

fc2.weight f4 [84, 120]
0	0x3db6b07b	0.0892038
1	0xbd8a8535	-0.067636885
2	0xbd3f40c2	-0.046692617
3	0x3daa1b7a	0.08306022
4	0x3d8cb92d	0.06871257
5	0x3b074815	0.002064233
6	0xbd37487c	-0.04474686
7	0x3b81ac0c	0.003957277
8	0x3d0ee974	0.034890607
9	0x3c6441e8	0.013931729
10	0x3bd23c24	0.0064158607
11	0xbd053a64	-0.03252639
12	0x3c9bbe08	0.019011512
13	0x3b57a6cc	0.0032905815
14	0xbd9b6e14	-0.07589355
15	0xbc946970	-0.018116683
16	0x3d8def1e	0.069303736
17	0x3c0a4214	0.008438606
18	0x3d80642b	0.062691055
19	0x3bdc9be5	0.0067324513
20	0xbbb31757	-0.005465429
21	0xbc290c4b	-0.010317872
22	0xbcbd43af	-0.023103563
23	0x3dd02e34	0.101650625
24	0x3d72f066	0.059311293
25	0xbc860445	-0.016359458
26	0x3d79ad67	0.060956385
27	0x3d778b8c	0.060435817
28	0x3da68b4e	0.08132039
29	0xbd0333af	-0.03203171
30	0x3b8fdaf7	0.0043901163
31	0x3e051e42	0.12999824
32	0x3c2f6d24	0.0107071735
33	0x3d1b7aad	0.03795879
34	0x3a9867a0	0.0011627562
35	0xbd807426	-0.062721536
36	0x3d1591a3	0.036515843
37	0x3c94a438	0.018144712
38	0xbd8acfe8	-0.06777936
39	0x3cfadcd5	0.030622879
40	0x3d323920	0.04351151
41	0x3d66966b	0.056295794
42	0x3dc01879	0.09379668
43	0x3c67f02d	0.014156383
44	0x3b9f04ec	0.0048528817
45	0x3ca3764f	0.019953875
46	0xbd47bd54	-0.04876454
47	0x3d2c962a	0.042135395
48	0xbd4dee1f	-0.050275918
49	0xbdbb063f	-0.09132051
50	0x3c8bc947	0.01706375
51	0x3d1b6198	0.03793487
52	0xbdc5445c	-0.09632179
53	0x3d0835de	0.033254497
54	0x3c0ba47a	0.008523101
55	0x3c043cc3	0.008071127
56	0x3bf53d9a	0.00748415
57	0xbaf166dd	-0.0018417496
58	0xbd90bc71	-0.07067192
59	0xbddf6cc1	-0.10909415
60	0x3d020e6b	0.03175203
61	0xbd89d1fa	-0.06729503
62	0x3d387f95	0.045043547
63	0x3d25887a	0.040413357
64	0x3dac8762	0.0842426
65	0xbc7877a8	-0.015165247
66	0xbdccbdf4	-0.09997168
67	0x3c03185c	0.008001413
68	0xbc3ce23f	-0.011528551
69	0xbc66a0f0	-0.014076456
70	0xbc31ea2d	-0.0108590545
71	0x3de22abb	0.110433064
72	0xbb970f4c	-0.004609978
73	0xbd41ac6b	-0.04728357
74	0xbd58c038	-0.05291769
75	0xbdd4d3ef	-0.103919856
76	0xbdc3590e	-0.0953847
77	0x3e0a3b1f	0.13499115
78	0xbd5ccd7f	-0.053906914
79	0x3d07a142	0.03311277
80	0x3de6e19a	0.11273499
81	0xbde7a124	-0.11310032
82	0x3c97707d	0.018486256
83	0xbddb541a	-0.107094005
84	0xbd206a77	-0.039164033
85	0x3ca9aae4	0.02071137
86	0xb8fb9c5e	-0.00011997738
87	0xbce5d476	-0.02805541
88	0x3d1f46c8	0.03888586
89	0x3dab31fe	0.08359145
90	0xbe1d3dcf	-0.1535561
91	0x3e080b7d	0.13285632
92	0xbb63347f	-0.0034668741
93	0x3c92e7e5	0.017932842
94	0xbdd17768	-0.10227853
95	0xbc78d568	-0.015187599
96	0x3e1c8d39	0.15288247
97	0xbd739389	-0.059466872
98	0xbcf94500	-0.03042841
99	0x3d5859f0	0.052820146
100	0x3c72d580	0.01482141
101	0xbdbb2b6c	-0.091391414
102	0xbd276960	-0.040871978
103	0x3cb66345	0.022264132
104	0x3d74fdf6	0.05981251
105	0xbd9e4ab2	-0.07729091
106	0xbd06a50e	-0.032872252
107	0x3d85bb51	0.065298684
108	0x3e0af13d	0.13568588
109	0x3dc7933b	0.09744879
110	0xbd53f322	-0.05174554
111	0xbd11e74e	-0.03562098
112	0xbd2b79c6	-0.04186418
113	0x3dbb65b2	0.09150256
114	0x3d42cdaa	0.047559418
115	0xbbe27c68	-0.006911803
116	0xbe23678e	-0.15957472
117	0x3dab1d22	0.08355166
118	0xbde1c081	-0.11023045
119	0x3d8f7908	0.07005507
120	0xbd149621	-0.036275987
121	0xbd982ec7	-0.07430797
122	0xbc703cb3	-0.014662909
123	0xbb9b9484	-0.004747929
124	0xbda9401b	-0.0826418
125	0xbd5fb705	-0.0546179
126	0x3dc3ebeb	0.09566482
127	0x3d33bc4d	0.04388075
128	0xbaedc0af	-0.0018139089
129	0x3b8357f0	0.0040082857
130	0x3da2746f	0.07932364
131	0xbd085901	-0.033288006
132	0xbd962b89	-0.073325224
133	0xbd9be6e2	-0.07612397
134	0xbd902620	-0.07038522
135	0xbb0d9a78	-0.0021606963
136	0x3d78f5fd	0.060781468
137	0x3c5026a6	0.012704527
138	0x3db6b6e1	0.089216
139	0x3db2462b	0.0870479
140	0x3da2a7fb	0.07942196
141	0xbc4c5206	-0.012470728
142	0xbd5dffbe	-0.054198973
143	0x3c0c25db	0.008553947
144	0x3d18b771	0.03728432
145	0xbd9d1045	-0.07669119
146	0xbc315491	-0.010823385
147	0xbd575b23	-0.05257715
148	0xbd2e4e60	-0.042555213
149	0x3d525a94	0.051355913
150	0x3d53fd2d	0.05175512
151	0x3cafd000	0.021461487
152	0x3d38aba6	0.04508557
153	0xbc431c22	-0.011908563
154	0x3cd0c9e0	0.025486887
155	0xbdb4114d	-0.08792362
156	0xbd55164f	-0.05202323
157	0xbd6fe2c2	-0.058565862
158	0x3d38ce19	0.045118425
159	0x3cdc2df5	0.026877383
160	0xbdbfe81e	-0.09370445
161	0x3b7f1524	0.0038922513
162	0xbccc96be	-0.024974223
163	0x3dcb0b60	0.09914279
164	0x3dadfac3	0.084950946
165	0xbd7f0ad6	-0.062266193
166	0xbceadbc8	-0.028669253
167	0x3be7f8f1	0.0070792367
168	0x3de99fe9	0.114074536
169	0xbd144fbe	-0.03620886
170	0xbda1b705	-0.07896236
171	0x3d810965	0.0630062
172	0xbdc15973	-0.09440889
173	0x3d4f4c61	0.05060995
174	0xbd949754	-0.07255426
175	0xbc52fea6	-0.012878096
176	0xbc60fd1a	-0.013732219
177	0xbd2a812d	-0.041627098
178	0x3d6f6ca7	0.05845323
179	0x3cc6b488	0.024256006
180	0xbcc66482	-0.024217848
181	0xbb87f758	-0.0041493587
182	0xbcae633a	-0.02128755
183	0x3be8c457	0.0071034837
184	0xbc814648	-0.015780583
185	0x3d77292a	0.06034199
186	0x3bc45901	0.0059920554
187	0xbd96aecc	-0.073575586
188	0xbdaefdb9	-0.085444875
189	0x3c5681e0	0.013092488
190	0xbdb84e1c	-0.08999273
191	0x3d8cc5a0	0.068736315
192	0xbd606918	-0.054787725
193	0xbd10462f	-0.035223182
194	0x3d5b6f35	0.053572852
195	0xbccd2eef	-0.025046794
196	0x3dae012d	0.08496318
197	0x3cbae585	0.022814522
198	0x3d7dcbdb	0.06196199
199	0x3dd7a8cb	0.105302416
200	0x3cc6ab57	0.024251623
201	0x3c582474	0.013192285
202	0x3d0b4b2b	0.034007233
203	0x3cfcb6fe	0.030848976
204	0x3cba5da0	0.022749722
205	0xbce8ceda	-0.028418947
206	0x3ce39bec	0.02778431
207	0x3d93826f	0.072026126
208	0x3d769633	0.060201835
209	0x3da8333c	0.08212897
210	0xbd3bbc97	-0.04583415
211	0xbd8eb93b	-0.06968924
212	0x3dca643e	0.09882401
213	0x3d4d3ea5	0.05010857
214	0x3d678e08	0.056531936
215	0x3cfcc1b9	0.030854093
216	0x3c245ae5	0.010031437
217	0x3ca13c13	0.019681966
218	0x3bd3e276	0.006466205
219	0xbd9afdcc	-0.07567939
220	0x3c6362ad	0.013878507
221	0xbdd720f3	-0.105043314
222	0x3bca565c	0.0061748456
223	0x3c9b6c0e	0.018972423
224	0xbd16be4c	-0.036802575
225	0xbda8efe7	-0.08248883
226	0xbddcdc97	-0.10784262
227	0x3d147266	0.03624191
228	0x3db9bb31	0.09068907
229	0x3d28ecc1	0.04124141
230	0xbd68d835	-0.056846816
231	0x3d4e0760	0.050300002
232	0x3c54d865	0.012991046
233	0x3de4bc23	0.11168697
234	0x3d189861	0.037254695
235	0xbda86d86	-0.08224015
236	0xbd31ab3c	-0.043376192
237	0xbce66c4f	-0.028127817
238	0xbdbe2f60	-0.0928638
239	0x3da50560	0.08057666
240	0x3d6db613	0.058034968
241	0x3d789a64	0.060694113
242	0xbda7aa81	-0.08186818
243	0x3c51f04e	0.012813641
244	0xbd742a2f	-0.059610542
245	0xbd61a06b	-0.055084627
246	0x3d4cc332	0.04999084
247	0xbd79baa6	-0.060969017
248	0x3ca689df	0.020329414
249	0x3d22f429	0.03978363
250	0xb9374c78	-0.00017480727
251	0x3d1b48cb	0.037911218
252	0x3c78a190	0.015175238
253	0x3d8a24b4	0.06745282
254	0x3c28baa9	0.0102984095
255	0x3d8d9058	0.06912297

fc2.bias f4 [84]
0	0xbe1f2009	-0.15539564
1	0xbd2448ff	-0.040108677
2	0xbde7b692	-0.113141194
3	0xbd88c42f	-0.06678044
4	0x3e6eef3c	0.23333448
5	0x3d9bc8a1	0.07606626
6	0xbd836fc8	-0.06417805
7	0xbcf69a4f	-0.030102877
8	0xbd03d83b	-0.032188635
9	0x3e19bb14	0.15012771
10	0x3ec72099	0.38892058
11	0x3da356be	0.07975529
12	0xbd1b0aa3	-0.03785194
13	0xbdc8bf87	-0.09802156
14	0x3d0568d4	0.032570675
15	0x3db5dd5b	0.08880111
16	0x3d51847e	0.051151745
17	0x3d0640e6	0.032776736
18	0x3c92814d	0.017883921
19	0x3d73d1ac	0.05952613
20	0x3dd4f134	0.10397568
21	0x3d7d8a21	0.061899308
22	0xbd1c35ee	-0.03813737
23	0xbcb89449	-0.022531645
24	0x3e531e42	0.20617011
25	0xbd2769a9	-0.04087225
26	0xbba0bd67	-0.004905391
27	0x3da1d503	0.07901957
28	0xbd8360d2	-0.064149514
29	0x3e462076	0.1934832
30	0x3da3a9e3	0.07991388
31	0xbd9e91fd	-0.07742689
32	0x3cd36ab1	0.02580771
33	0x3ea37c19	0.31930616
34	0xbd906d5c	-0.07052109
35	0xbe127b3d	-0.14304824
36	0xbd0ba0fd	-0.034089077
37	0xbd69b0a9	-0.057053242
38	0x3e9cc3a5	0.30618015
39	0x3e9375ec	0.28800905
40	0xbd5268c8	-0.05136946
41	0xbdcdf169	-0.10055811
42	0x3d6cf21a	0.057848074
43	0xbd312e03	-0.04325677
44	0xbd7b47f3	-0.061347913
45	0x3e8f4035	0.27978674
46	0x3ca9a612	0.020709071
47	0xbd956f55	-0.072966255
48	0xbdb80fa8	-0.08987361
49	0x3dd0d86d	0.1019753
50	0x3d865612	0.06559385
51	0xbe59485a	-0.21219006
52	0x3ce4b345	0.027917514
53	0xbd004f1c	-0.031325445
54	0x3e15ba5f	0.14621876
55	0x3d325355	0.043536503
56	0xbcdf5ffc	-0.027267449
57	0x3dd5d2f5	0.104406275
58	0x3c754d69	0.014972069
59	0x3e0598a3	0.13046508
60	0xbca4696f	-0.020069806
61	0x3cfa3a12	0.030545268
62	0xbe26581a	-0.16244546
63	0xbd1aade7	-0.037763502
64	0x3e860c9d	0.26181498
65	0xbdbdd888	-0.09269816
66	0x3ccd4bd6	0.025060575
67	0xbd925fe1	-0.07147194
68	0x3e0a9776	0.1353434
69	0x3d1b04cf	0.037846383
70	0x3de2a3a4	0.11066368
71	0x3dba3a8a	0.09093197
72	0x3d9a0587	0.075205855
73	0x3e21dc12	0.15806606
74	0x3e081bb7	0.13291822
75	0x3e96108c	0.293095
76	0xbd9a5341	-0.07535411
77	0x3e292bcf	0.16520618
78	0xbd085d4c	-0.0332921
79	0x3e977bf0	0.29586744
80	0x3ca32483	0.019914871
81	0xbdb53015	-0.088470615
82	0x3c9e7b33	0.019345855
83	0x3daca47f	0.08429813

fc3.weight f4 [10, 84]
0	0x3e036c71	0.12834336
1	0x3df6064f	0.12012922
2	0x3db743ca	0.089484766
3	0xbd6a3bc9	-0.05718592
4	0x3e09bae0	0.13450193
5	0xbaa31682	-0.0012442621
6	0x3dabfd10	0.08397877
7	0xbe0b0f80	-0.13580132
8	0x3e064e8f	0.13115905
9	0x3e044099	0.12915267
10	0xbe3d04df	-0.1845889
11	0x3d85b169	0.06527979
12	0x3db97bd5	0.09056822
13	0x3c513e9f	0.012771278
14	0x3ceb106f	0.02869436
15	0xbe15d8bc	-0.14633459
16	0x3e33e002	0.17565921
17	0xbc9a978b	-0.01887109
18	0x3e773de7	0.24144708
19	0x3d844725	0.06458882
20	0xbe457a90	-0.19285035
21	0x3d4373cf	0.047717866
22	0xbd953b82	-0.07286741
23	0xbd60b56e	-0.054860525
24	0xbd71e17f	-0.05905294
25	0xbe24a55e	-0.16078708
26	0x3d372b1c	0.044718847
27	0x3df46d81	0.11934949
28	0x3cfc882e	0.030826654
29	0x3e2574f3	0.16157894
30	0xbe05a6aa	-0.13051859
31	0x3dfce7dd	0.12348912
32	0x3e17eee1	0.14837219
33	0xbe214110	-0.15747476
34	0x3e14b902	0.145237
35	0xbcec436e	-0.028840747
36	0x3da75251	0.081699975
37	0xbabcb903	-0.00143984
38	0xbe7b3214	-0.24530822
39	0x3e2d38f3	0.16916256
40	0x3e64ffbd	0.22363181
41	0x3dbec929	0.09315712
42	0xbd8403a2	-0.064460054
43	0xbcd6c22e	-0.026215639
44	0x3e0a9baa	0.13535944
45	0xbe427474	-0.18989736
46	0xbd2fc0bd	-0.04290842
47	0xbc9428f3	-0.018085932
48	0x3bbcbabc	0.005759565
49	0xbe5e2938	-0.21695411
50	0xbca55840	-0.020183682
51	0x3c89a79d	0.016803557
52	0x3e1cfd0e	0.15330908
53	0x3cf1b279	0.029504048
54	0xbd678faf	-0.05653351
55	0xbe170dcb	-0.14751355
56	0x3cd3d8d2	0.025860224
57	0xbe3aef42	-0.18255332
58	0x3c582e69	0.013194659
59	0x3e67fbe5	0.22654684
60	0xbd88d1c0	-0.06680632
61	0xbd910dd9	-0.07082719
62	0x3e1f31a9	0.15546288
63	0xbd8c2f0b	-0.0684491
64	0x3b9a9cd7	0.004718404
65	0xbdc317bc	-0.09526011
66	0x3d86e44a	0.065865114
67	0x3e38ad16	0.18034777
68	0x3e0fcfad	0.14044066
69	0x3e9b9bbc	0.30392253
70	0x3d516a61	0.05112684
71	0x3e2b6aa4	0.16739899
72	0xbd2e5851	-0.042564694
73	0xbe0f2502	-0.13978961
74	0xbdc5b39d	-0.09653399
75	0x3e24f681	0.16109659
76	0x3bdfc87a	0.0068293186
77	0x3e25d010	0.16192651
78	0xbe340b20	-0.17582369
79	0xbe55ac9a	-0.20866624
80	0x3de5a878	0.112137735
81	0xbc925e0d	-0.017867113
82	0x3e107f70	0.14111114
83	0xbd467759	-0.048453663
84	0x3e61f235	0.22065051
85	0xbdb3d618	-0.087810695
86	0x3e8cd6a2	0.27507502
87	0x3de01d51	0.10943092
88	0x3e7481db	0.23877661
89	0xbcb94afa	-0.02261876
90	0x3bda7b41	0.006667525
91	0x3e02c3e3	0.12770037
92	0x3dc70b75	0.09718982
93	0xbdf0ca92	-0.11757387
94	0xbcde8801	-0.027164461
95	0xbe873426	-0.26406974
96	0xbccab799	-0.02474575
97	0xbbbc34b5	-0.005743588
98	0xbda487b0	-0.08033693
99	0x3e211251	0.15729643
100	0x3bf558f8	0.0074874125
101	0xbc3f99f2	-0.011694418
102	0xbdc0334c	-0.09384784
103	0xbc2e8da5	-0.010653888
104	0x3df4c6f3	0.11952009
105	0xbe098cd0	-0.13432622
106	0x3c00dccf	0.007865145
107	0xbd9fcc90	-0.07802689
108	0xbeb76533	-0.35819396
109	0xbd0e2ed5	-0.03471263
110	0x3df3a208	0.118961394
111	0xbce3cbea	-0.027807195
112	0xbc49c492	-0.012314932
113	0xbd6c5214	-0.057695463
114	0x3d94763f	0.07249116
115	0x3e3d44ff	0.18483351
116	0xbc86077b	-0.016360989
117	0x3d81e1d3	0.06341901
118	0xbddc54a7	-0.10758334
119	0x3e2564d5	0.16151746
120	0xbd2e9759	-0.042624805
121	0x3dd23858	0.10264653
122	0xbe3921f9	-0.18079366
123	0xbe190786	-0.14944276
124	0xbe0143ca	-0.12623516
125	0xbd9c9202	-0.07645036
126	0xbe7f7e6c	-0.2495057
127	0x3d3ac41b	0.045597177
128	0xbe028bdc	-0.12748665
129	0x3de75f1d	0.11297438
130	0x3e31454d	0.17311592
131	0xbd9f1225	-0.07767133
132	0x3d5aec53	0.053448033
133	0xbd8d6684	-0.06904319
134	0xbe09cfe9	-0.13458218
135	0x3d9ee00b	0.077575766
136	0xbd9e2049	-0.07721002
137	0xbd794230	-0.060854137
138	0xbea55ce5	-0.32297435
139	0x3dd91e1f	0.10601448
140	0xbd30ca6c	-0.043161795
141	0x3e3c5229	0.18390717
142	0x3d95a243	0.073063396
143	0x3e10f9d4	0.14157802
144	0x3dd1911f	0.10232758
145	0x3d109931	0.035302345
146	0x3e35fe92	0.17772892
147	0x3cb7e160	0.022446334
148	0xbd79d082	-0.060989864
149	0xbdb6953e	-0.089151844
150	0xbdd342c8	-0.10315472
151	0x3e31cd08	0.1736337
152	0x3eca97a1	0.3956881
153	0xbdaa55ba	-0.08317132
154	0xbe007925	-0.12546213
155	0x3de5277f	0.11189174
156	0xbe1e9745	-0.15487392
157	0xbe9e6ea0	-0.30943775
158	0xbda8e3e4	-0.08246592
159	0xbea5f0dc	-0.32410324
160	0xbd36bf54	-0.04461606
161	0xbe1edb2d	-0.15513296
162	0x3c0d3487	0.0086184805
163	0xbe82b7f8	-0.25530982
164	0x3d07adb7	0.03312465
165	0xbdb5934d	-0.08865986
166	0x3e57d0d3	0.21075754
167	0x3d89efbf	0.06735181
168	0x3e099950	0.1343739
169	0x3e3411e0	0.17584944
170	0x3c63e6b9	0.013909989
171	0xbe20f0db	-0.15716879
172	0xbe00e3a6	-0.12586841
173	0xbd85be54	-0.06530443
174	0xbd89d90b	-0.06730851
175	0x3d6fdffd	0.05856322
176	0xbe01834f	-0.12647747
177	0xbdeb1304	-0.11478236
178	0x3e8cea1a	0.27522355
179	0x3da2f1b3	0.07956257
180	0x3d98222b	0.07428392
181	0xbdb63005	-0.08895878
182	0xbe143618	-0.1447376
183	0xbe580cbe	-0.21098611
184	0x3dffda23	0.12492778
185	0xbcaba447	-0.020952357
186	0x3cf79f12	0.030227218
187	0xbd8f9a40	-0.07011843
188	0xbb4c5397	-0.0031177753
189	0x3e321d6a	0.17394033
190	0x3dc75b72	0.09734239
191	0xbd91762b	-0.07102617
192	0x3e2c2435	0.16810687
193	0x3dc1b336	0.0945801
194	0xbd278216	-0.040895544
195	0xbdb0f4ef	-0.086404674
196	0xbdf11037	-0.11770671
197	0xbe2d25d0	-0.16908956
198	0x3e262c1f	0.16227768
199	0x3dffe8b8	0.124955595
200	0xbba7d7c0	-0.005122155
201	0xbd14bfb6	-0.036315642
202	0x3db2bd10	0.08727467
203	0x3db507d3	0.08839383
204	0x3dc96b5f	0.098349325
205	0xbdcf25fc	-0.10114667
206	0x3cc56af3	0.024098849
207	0x3e120bee	0.14262363
208	0xbd0c49d4	-0.034250095
209	0xbd969891	-0.073533185
210	0x3ea143d1	0.31497052
211	0xbca6896d	-0.020329202
212	0xbcdf664e	-0.027270462
213	0x3d6fba0f	0.05852705
214	0xbde50488	-0.11182505
215	0x3da9bcf8	0.08287996
216	0xbdb089b2	-0.08620013
217	0x3d3f448d	0.046696234
218	0x3e99c60e	0.30033916
219	0xbe22bc82	-0.15892223
220	0x3df52a01	0.11970902
221	0xbd484cb8	-0.04890129
222	0x3dba0b63	0.09084203
223	0xbdcf4ef9	-0.10122485
224	0x3cbd4050	0.023101956
225	0xbe077253	-0.13227205
226	0x3d9da59d	0.07697604
227	0x3db44d03	0.08803751
228	0x3d103beb	0.035213392
229	0xbbc93732	-0.006140613
230	0xbdc2db6a	-0.09514506
231	0x3defd040	0.117096424
232	0x3e292ec2	0.16521743
233	0xbc892454	-0.016740955
234	0x3e649e59	0.2232603
235	0xbd1f9616	-0.038961492
236	0xbe2c2cb0	-0.16813922
237	0xbcc3da44	-0.023907788
238	0x3e0868c8	0.13321221
239	0xbcc5a2d4	-0.024125494
240	0x3d0eb3db	0.034839492
241	0x3b523243	0.0032073415
242	0x3e1f5864	0.15561062
243	0x3eac1f02	0.33617407
244	0x3d159908	0.036522895
245	0x3dc316b1	0.095258124
246	0xbd9d7d33	-0.076898955
247	0x3e0ecfc4	0.13946444
248	0xbbac5b01	-0.005259872
249	0xbd4167f5	-0.04721828
250	0xbc5c51b7	-0.013447217
251	0xbc9f5263	-0.019448465
252	0x3d939cdc	0.07207653
253	0x3c54994b	0.012976001
254	0xbdaf5457	-0.085610084
255	0x3e13c7af	0.14431642

fc3.bias f4 [10]
0	0xbe7256f6	-0.23665985
1	0xbeb98f9f	-0.36242387
2	0x3e13a778	0.14419353
3	0x3e56a79f	0.2096238
4	0x3f2446bd	0.6417044
5	0xbe6eed27	-0.23332654
6	0x3e11b9f9	0.14231099
7	0xbe88bd3a	-0.26706868
8	0x3eb24c0d	0.34823647
9	0xbe73d1da	-0.23810521
